models/LeNet_mnist.pth (torch, 752782 bytes, 30 tensors)

conv1.weight f4 [6, 1, 5, 5]
000000 b5 45 d6 3d cc 6d 4f 3e 53 8b b8 3d af c7 97 bd
       0.10462514 0.20256728 0.09010949 -0.074111335
000010 0b 85 7b be 62 1d 49 be de 7a 93 3b 09 a9 97 bd
       -0.2456247 -0.19640115 0.004500731 -0.07405288
000020 12 25 60 3d b8 1e 37 3e ea eb ec bd d1 6f 24 3e
       0.054722853 0.17882812 -0.115684345 0.1605828
000030 5a 64 09 be 88 c9 3d 3e 0b 9a ee 3d a1 6b bb 3d
       -0.13417187 0.1853391 0.11650475 0.09151388
000040 7b 1d e9 bc 9f 75 8e 3e da 8f 94 3d 8f 0d 84 3e
       -0.02845644 0.27824113 0.07254 0.25791594
000050 af 94 85 be 66 a2 b1 3d a2 5e 33 3e c2 45 e1 3d
       -0.2609 0.08673553 0.17516568 0.10999633
000060 02 00 05 3e 86 5f a6 bb 76 2d af bd 05 47 94 3e
       0.12988284 -0.0050773052 -0.08553593 0.28960434
000070 3c d2 14 3e 35 87 43 3d bb e4 13 be da 25 b7 bd
       0.14533323 0.047736365 -0.14442722 -0.089427665
000080 f0 c0 27 3e eb 5f 5b 3e 98 09 ff bb 27 a3 c9 be
       0.16382194 0.21423309 -0.007783126 -0.39382288
000090 c4 15 09 3e 46 4c 4f 3e 68 be b2 3e 8b a0 27 be
       0.13387209 0.2024394 0.34910893 -0.16369836
0000a0 53 e7 0f be eb dd 22 be 78 08 90 3d 4e ec 96 3e
       -0.14053087 -0.15904967 0.07032865 0.2947716
0000b0 a6 71 13 be 7a b4 85 be 16 2c a2 3c 15 ed f2 3d
       -0.14398822 -0.26114255 0.019796412 0.11861626
0000c0 5a c4 4d 3e 18 0a b7 bd a5 13 16 bd c3 73 f0 bd
       0.20094433 -0.08937472 -0.03663983 -0.1174083
0000d0 67 9d 23 bd 3a 9d 44 3e 37 2f 64 3e 2f 8b 08 3b
       -0.039945032 0.19200602 0.22283636 0.0020834913
0000e0 ef 37 df bd 4a 6e 27 3c 9e d7 a4 3b b6 24 f9 bd
       -0.1089934 0.010219166 0.0050305864 -0.12165205
0000f0 70 94 da bb 11 e4 9d 3e fb e2 7a 3e fa 8c 2f bd
       -0.006670527 0.30838063 0.24500649 -0.042859055
000100 45 cb 61 ba 66 21 9b 3e 61 0f b8 3e 97 00 a6 3e
       -0.00086133584 0.30298918 0.35949233 0.32422325
000110 d5 f4 60 3e c3 01 70 bd 41 74 18 3e 0d 01 5f 3e
       0.21968396 -0.05859543 0.14888097 0.21777745
000120 ee 44 f6 bd 70 77 7c be 57 76 93 be 4b 99 99 3e
       -0.12024866 -0.24654937 -0.28801224 0.29999766
000130 88 dc ab 3e 21 02 a6 3e 59 a9 94 3d 17 13 84 3e
       0.3356669 0.324235 0.07258863 0.25795814
000140 7e c4 49 bd 8a bc 83 3c 3f 3f a7 3e 07 9d aa 3e
       -0.049259655 0.016081113 0.3266544 0.33322927
000150 d4 c7 b9 3e ee 19 56 3c 31 72 10 be 2e a8 d1 3d
       0.3628527 0.013067706 -0.1410606 0.10237156
000160 ea 7b 0f 3e 25 ec 7c 3d 80 72 01 bf bf ec fe be
       0.14012113 0.061748642 -0.5056534 -0.49789998
000170 1d 0f c0 be 77 c3 d4 3c ba 43 c3 bd 4e 9f a2 bb
       -0.3751153 0.025972111 -0.09534402 -0.0049628383
000180 31 61 9c be bc c2 ca be 80 93 a1 be a9 2b 1f 3d
       -0.305429 -0.39601696 -0.31557846 0.038859997
000190 d2 cd f2 bd ff 3d 13 3e 94 6b 62 bd 6f 34 20 3d
       -0.11855663 0.14379118 -0.055278376 0.039112505
0001a0 db e6 34 be 33 ea 15 be e8 3a 85 3e 0d 62 11 bd
       -0.1766619 -0.14640121 0.26021504 -0.0354939
0001b0 23 d1 b4 be 30 d0 98 be a3 3b 91 39 53 2e 90 3e
       -0.3531581 -0.29846334 0.00027700988 0.28160343
0001c0 50 5e ae 3e f9 5c b8 be d9 5e ea be 2f 63 c3 bd
       0.3405633 -0.36008433 -0.45775488 -0.09540402
0001d0 e7 7e 6d 3e 37 01 57 3e a6 8f a8 bd 1e fe 98 be
       0.2319294 0.20996557 -0.08230524 -0.29881376
0001e0 1e ab 99 3d 60 54 c6 3e 8b df e4 3e 07 72 43 3e
       0.07503341 0.38736248 0.447018 0.19086467
0001f0 0a 1c 8e 3e c9 79 8b be 0a 09 f1 bd 3b 06 5e be
       0.27755767 -0.27241352 -0.11769302 -0.21682064
000200 91 0c a7 bc e2 42 01 3e 82 1c 40 bd f6 6f 6b 3d
       -0.020391734 0.1262317 -0.046902187 0.05747982
000210 75 75 82 3e ea a3 8d 3e 5e 32 a4 3e 7e f9 35 bd
       0.25480238 0.2766412 0.32069677 -0.044427387
000220 b7 cc db 3e 1e b4 9b 3e 71 24 2d 3e ac fe 04 3d
       0.42929623 0.30410856 0.16908433 0.032469437
000230 64 09 ad 3c 37 cf 2c 3e 0c e1 af 3d c5 21 82 be
       0.021122642 0.16875921 0.08587846 -0.2541639
000240 f2 9c 3d bd d5 46 f5 3d 9e 77 1f 3d 6c 3f bc be
       -0.046292253 0.11976401 0.038932435 -0.36767137
000250 05 ab c6 be 1c ae 52 be
       -0.38802353 -0.2057423

conv1.bias f4 [6]
000000 36 d1 27 3e da 59 6f bd a1 d0 53 3d 34 b2 7e 3e
       0.16388401 -0.0584353 0.051712636 0.24872667
000010 46 5d 8f 3d b0 b4 07 3e
       0.07000212 0.1325252

conv2.weight f4 [16, 6, 5, 5]
000000 f9 e0 44 bd bc d1 e4 3c 08 b1 14 bd 4b 9e ce bd
       -0.048066113 0.02793204 -0.036301643 -0.10088786
000010 5c dd 9a bd 80 d5 c5 bc 4d 04 ba 3d 97 7b d7 bd
       -0.07561752 -0.024149656 0.090828516 -0.1052162
000020 5f 77 be bb 42 75 23 bc 0c 67 fe 3d c2 a8 94 3d
       -0.00581257 -0.009976687 0.124219984 0.072587505
000030 80 32 8f 3d 80 90 ca bc 6c a8 bd 3d d3 a3 60 bc
       0.06992054 -0.024727106 0.092606395 -0.013710934
000040 dc d2 e2 3d d2 4b a4 3d ef ce 16 3d be cd bd 3b
       0.110753745 0.08022274 0.03681844 0.0057923486
000050 cb ee 84 3d aa c4 ac bb 6a e9 16 3d f0 a4 28 3c
       0.06490859 -0.0052724676 0.036843695 0.01029323
000060 2d 28 ae 3d ac 25 45 3d 62 9d d4 bc 2d 27 ac bd
       0.08503757 0.04813163 -0.025953952 -0.0840591
000070 3b fb 81 3d c9 02 e8 3c c3 4f 98 3d df 98 02 3c
       0.063467465 0.02832164 0.07437088 0.007971018
000080 ab 22 13 3d 14 71 78 bc 20 3a a7 bd ca 12 c8 bc
       0.035921734 -0.015163679 -0.08165383 -0.024423022
000090 57 71 14 be 5b 64 c1 bd 60 4a e1 bd 36 01 2d be
       -0.1449636 -0.094429694 -0.11000514 -0.16894993
0000a0 cd e4 f2 bd 9b dd 49 be 04 0f 50 be 05 85 1c be
       -0.118600465 -0.19713442 -0.20318228 -0.15285118
0000b0 5b 85 f1 bd 37 15 a6 bd 9b 08 83 bd e3 3a 96 bd
       -0.11793014 -0.08109515 -0.06398126 -0.073354505
0000c0 12 10 37 bd 53 dc 13 bd cd 18 cc 3b 12 7a 07 bd
       -0.04469306 -0.03609879 0.0062285424 -0.0330754
0000d0 2e f2 ed bd ad 16 d6 bd 0b c7 e8 bc 71 6b be bd
       -0.11618458 -0.10453544 -0.028415224 -0.092978366
0000e0 7c c4 6a bd f3 fb c7 bc 48 d2 6e bd 4a 53 ba bc
       -0.05731629 -0.024412131 -0.05830601 -0.022744793
0000f0 3a 6e 8e 3d 65 fe 53 3d 4d d9 7b bc 23 7b b1 bd
       0.06954618 0.05175628 -0.015371633 -0.086660646
000100 92 cb c5 3d 97 9d cd 3d d7 9e 8b 3d c9 f1 43 3d
       0.096579686 0.100398235 0.06817406 0.047838006
000110 2f a2 37 3d a3 b6 d7 3d 90 7a ae 3c 60 0c 10 bd
       0.044832405 0.10532882 0.021298677 -0.03516805
000120 3b 93 49 bd 7f e6 d3 bb 7d a6 4a bd e1 5a e8 3d
       -0.049212676 -0.0064666863 -0.04947518 0.11345459
000130 6c 99 db bd 93 aa af bd 39 4d 72 bd 50 f2 62 3c
       -0.10722622 -0.08577456 -0.059155677 0.013851717
000140 e6 98 c8 3d 03 65 ae bd dc e5 80 bd 17 88 19 be
       0.09794788 -0.0851536 -0.06293842 -0.1499332
000150 d9 7e cd bb e3 49 36 bb 75 16 06 3e 27 9b 24 3d
       -0.006271225 -0.0027815036 0.13094504 0.040187027
000160 c5 f7 8e bd 75 7a af bd ce 30 28 3e 79 c6 1e 3e
       -0.06980852 -0.08568279 0.16424868 0.15505399
000170 04 54 9a 3d 15 34 6e 3e a6 00 5b 3e 2e 63 c7 3b
       0.07535556 0.23262055 0.21386966 0.006084821
000180 db 89 c7 3c b2 6c f1 3d 44 82 fc 3d c5 20 b8 3d
       0.024357727 0.1178831 0.12329534 0.08990625
000190 77 38 5a 3d 72 2d 26 bd a1 da d4 bd 97 eb e2 bc
       0.053276505 -0.040570684 -0.10393263 -0.027700229
0001a0 d3 74 2e 3d 23 21 e9 3d 8d e4 bf 3d dc 32 9f 3d
       0.04259188 0.113832735 0.093697645 0.077733725
0001b0 46 e0 14 3d 8f 21 b2 3d d2 3e 2c 3e 5f c8 c8 3d
       0.036346696 0.08697807 0.16820839 0.09803843
0001c0 b6 6f 07 3e 46 b6 94 3d 1f 53 ce 3d 75 20 c0 bd
       0.13226208 0.072613284 0.10074448 -0.09381191
0001d0 d9 f3 8b bd 1d d3 27 3c ce cb 9b 3d 24 b1 28 bd
       -0.068336196 0.010243204 0.07607232 -0.04118456
0001e0 32 55 e7 bd b4 54 07 be 44 24 f6 bd 5f 10 bc bd
       -0.112955466 -0.13215905 -0.12018636 -0.0918281
0001f0 9b dd 65 bd 15 e0 f2 bc 9a 32 aa bd 94 3d ad bc
       -0.056119543 -0.029647866 -0.08310433 -0.021147527
000200 a2 79 51 bd e1 3e 54 3c c6 6b 06 bd 6b 16 f2 bd
       -0.05114139 0.012954445 -0.032817625 -0.11820682
000210 48 e5 4f bd 29 c2 0d be ee 9d 0c 3c 7a 6d 86 3d
       -0.05075577 -0.13843597 0.008582575 0.0656385
000220 0b 67 1b 3d 0d 87 91 3d 2f f9 52 bd 47 2e ba 3d
       0.037940066 0.07105837 -0.05150717 0.09090858
000230 4e cc df 3d c9 49 28 3e 26 3b d9 3d fe 2b 04 3e
       0.1092764 0.16434397 0.10606985 0.12907407
000240 6d c9 08 3e 38 6f 5e 3d 9e 21 35 3e 0c 83 92 3d
       0.13358088 0.054305285 0.17688605 0.071539015
000250 46 ba fa bc 9c 3b cd 3b 2d ac c1 bd c8 de 7e bd
       -0.0306064 0.0062632095 -0.09456668 -0.06222418
000260 33 4e 3d 3d 29 f6 96 3d 67 d9 3f 3d a2 56 28 3d
       0.046217155 0.0737117 0.04683819 0.041098244
000270 60 d4 96 3d f6 e2 3e 3c 47 16 d3 bc 56 71 29 bd
       0.07364726 0.011650791 -0.025767459 -0.04136785
000280 28 5c c9 bc bb 42 94 3d 8f 09 74 bd bb 27 19 bd
       -0.024580076 0.0723929 -0.05957943 -0.037391406
000290 b1 73 01 3e ca c5 ba bb 5a 05 27 be a2 48 92 bd
       0.12641789 -0.005699848 -0.16310635 -0.0714276
0002a0 2c 71 56 bd a5 ac 15 be b4 3c f0 bb 55 ab 61 bd
       -0.052354023 -0.1461664 -0.007331455 -0.055095036
0002b0 3d 05 03 be 0f 73 8f bd d1 b3 85 bd bf 13 e4 3d
       -0.12794967 -0.070043676 -0.06528438 0.11136579
0002c0 01 48 10 3d 0a 78 5b 3a 4d b4 80 3d c1 a6 27 3d
       0.03522492 0.0008372074 0.0628439 0.040930513
0002d0 be e6 0a 3e 16 8f 1d 3e 42 3f b5 3d 35 9f a9 bc
       0.13564584 0.15386614 0.08849956 -0.020705799
0002e0 01 15 a2 3d af cd 55 3d 46 37 73 3d 98 74 59 bd
       0.079141624 0.05219811 0.059378885 -0.053089708
0002f0 e9 0e 32 3b 08 e4 49 3d 16 28 4c 3d e7 8e e6 b8
       0.0027169532 0.049289733 0.049842916 -0.00010993872
000300 2c 30 90 bd fc b9 35 bd d0 3f 42 bd 9f 82 17 ba
       -0.07040438 -0.04436682 -0.047424138 -0.0005779657
000310 e4 56 72 bd 20 c4 ea bd 33 94 28 bd de 81 b0 bd
       -0.059164897 -0.11463189 -0.04115696 -0.0861852
000320 d4 8c 85 3c 9e 47 25 bd 07 e1 f2 3c 63 f7 06 bd
       0.016302504 -0.040351503 0.029648317 -0.03295077
000330 1d 46 4a 3d ec bb b1 3c 5d ab 90 3d c3 28 80 3d
       0.04938327 0.021696053 0.07063935 0.06257775
000340 42 75 43 3d e0 d5 bf bc f2 87 98 3c 9e 58 0f 3d
       0.047719248 -0.023417413 0.018619511 0.03499662
000350 b7 42 2e bd a5 2c 0c 3d b6 4f c2 3d 03 eb a5 bd
       -0.042544093 0.034222264 0.0948786 -0.081014656
000360 b4 ab 9a bc 1f 93 a6 bd 10 fe d7 bd c0 7b a8 bc
       -0.018880703 -0.0813353 -0.105465055 -0.020566821
000370 72 1b 8f bd df eb 40 be d7 4a 27 be 94 c2 1c be
       -0.06987657 -0.18839978 -0.16337143 -0.153086
000380 8b 37 b9 bd a0 f5 3f be fa 83 2a be 3b 79 05 be
       -0.09043797 -0.18746042 -0.16651908 -0.13034527
000390 d2 7c 1d 3c 0e dd 69 3d 99 4c 5c be da 97 e8 bd
       0.009612279 0.05709558 -0.21513595 -0.113570884
0003a0 8b 6f 34 be 86 38 06 be 03 d3 b8 bd 6a 74 bf 3d
       -0.17620675 -0.131075 -0.09024622 0.09348376
0003b0 2c 9c ce 3d 2e 61 02 bd 8a 69 16 bb f8 79 5d 3b
       0.10088381 -0.03183096 -0.002295109 0.0033794623
0003c0 00 a3 53 3e 63 11 2d 3e 3b b6 cf 3d 19 42 01 3e
       0.20667648 0.16901164 0.101421796 0.1262287
0003d0 58 da 10 3e 04 cf 9c 3d 7d a1 55 3e bc 5e 34 3e
       0.14145792 0.076566726 0.20862384 0.17614263
0003e0 53 8c 82 3d df db 0c 3d 81 0f ad bd 1a 20 37 bc
       0.06374421 0.034389373 -0.08450223 -0.011177087
0003f0 20 83 28 bd 47 c4 2e 3b 5b 5a 21 3e b5 43 ab bc
       -0.041140676 0.0026667283 0.15757124 -0.020906309

conv2.bias f4 [16]
000000 8e 67 61 bc 20 63 78 3d ab b9 c6 bc 2f 6d bb 3d
       -0.0137575995 0.060641408 -0.024258455 0.091516845
000010 23 6f f9 3c 41 c6 8b bd 82 a3 1d 3d 09 cb e4 3c
       0.030448502 -0.06824923 0.03848601 0.027928846
000020 fb 4e 0e bc e1 0f 29 ba 43 a4 0d 3e 27 1d 1f 3c
       -0.008685823 -0.00064492045 0.13832192 0.00971154
000030 92 ac e4 bd c7 59 81 bc b5 eb e7 3c b0 2c 93 3d
       -0.11165728 -0.01578988 0.028310636 0.07186258

fc1.weight f4 [120, 400]
000000 6f b6 7f bc fa ac 81 bd b6 6b 01 bd 36 17 fc 3c
       -0.01560746 -0.06331821 -0.03159686 0.030772787
000010 bc 74 87 3d 51 ba 7f bc 48 ab bd bd 42 a5 b0 bc
       0.06614062 -0.015608386 -0.09261185 -0.021563176
000020 18 d0 09 bd 4b 3a 21 be 23 6d 12 3c c1 41 d3 bd
       -0.03364572 -0.15744893 0.008937153 -0.10315276
000030 6b da 1c 3d 07 3f 0b 3c 84 4c 13 bd 8e 5f 4f 3d
       0.038294237 0.008498914 -0.035961643 0.050628237
000040 c1 1d 54 3c 6c dc 56 3d c3 28 a0 3d 4c e1 01 3d
       0.012946547 0.052456304 0.07820275 0.031709
000050 c9 e7 12 bc a7 02 a7 3b fc 91 d2 3c bd e8 84 3d
       -0.008966395 0.0050967517 0.025704376 0.06489704
000060 70 a4 fc bd a7 f3 01 bd fb 33 a7 3c 81 79 09 3e
       -0.123360515 -0.031726506 0.020410528 0.13425256
000070 26 36 ec 3d 90 97 4d 3d 9b 0c 4a bd b9 86 4e 3d
       0.115337655 0.05019337 -0.049328428 0.05042145
000080 2f 38 4b bd 25 1b 29 bd a4 45 3b bd 47 7a b6 3c
       -0.049614128 -0.041285653 -0.04572071 0.022275103
000090 08 4c 31 39 99 25 8c 3c e9 5d 07 3d ec af c9 bd
       0.00016908359 0.017107772 0.033048544 -0.098480076
0000a0 2d 31 40 bd 7f 2e 47 3d ff 26 66 bb c9 29 55 3c
       -0.046921898 0.048628327 -0.0035118458 0.013010451
0000b0 ce f7 a1 bb ac ab 71 3b 32 36 85 bc 43 71 c7 3c
       -0.0049428707 0.0036876006 -0.016261194 0.024346
0000c0 54 1b 0c 3c b0 d7 1c bc 0d d6 c8 3d 72 54 d4 3d
       0.008551437 -0.009572908 0.09806452 0.10367669
0000d0 2e 5f e2 3d 23 28 68 3c d6 c9 a7 bc fd d4 28 be
       0.1105331 0.014169726 -0.020481985 -0.16487499
0000e0 59 db 68 3d 43 11 bc bd 31 2a 58 3c b2 a6 e7 bc
       0.05684981 -0.0918298 0.013193653 -0.028277729
0000f0 aa ec 0a 3e 9c 56 15 3e 52 ca 4a bd b2 36 df 3c
       0.13566843 0.1458382 -0.049509354 0.02724776
000100 03 64 ad bc f5 36 c6 bd ab 5b e6 bd ed a9 91 3d
       -0.021165853 -0.09678451 -0.11247953 0.07112489
000110 d4 0b 32 3d 90 de 24 bd 65 9b 25 3e 8a 0f 51 bd
       0.04346831 -0.040251315 0.1617256 -0.05104021
000120 65 11 3d bc 8c cc be 3d 69 36 a3 b9 2e d2 a1 bd
       -0.011539792 0.09316358 -0.0003113032 -0.07901417
000130 ff 70 33 3b 93 bf 8e bb 18 9c ee 3b b4 37 b4 3d
       0.0027380583 -0.0043563335 0.0072817914 0.08799687
000140 72 c4 ae bc 07 39 99 bd 91 54 64 3c 7a 78 ca 3d
       -0.021333907 -0.0748158 0.013936178 0.0988626
000150 49 a2 bd bc b9 fb 95 bd ae 51 32 bd b8 0d 19 bd
       -0.023148673 -0.07323403 -0.043534927 -0.0373666
000160 7b de 72 3c b3 1c 09 be 8b 8b ab bd 68 d7 89 bc
       0.014823551 -0.13389854 -0.08376225 -0.016826347
000170 88 96 05 3d a8 99 bd 3d 13 0d a1 bd e6 8e ea ba
       0.03261426 0.09257823 -0.07863822 -0.001789537
000180 76 14 41 3d 2c 4c 3b 3c b3 ba d4 bc df 53 46 bd
       0.047138654 0.011431735 -0.025967931 -0.04841983
000190 03 c2 59 bc 9b f8 90 bd f4 a3 2c 3d 1d aa b7 bb
       -0.013290885 -0.07078668 0.042148545 -0.005604996
0001a0 a7 f7 92 3d 32 8e 7d bd 59 94 82 bd 23 01 13 3c
       0.07176142 -0.061903186 -0.06375951 0.008972439
0001b0 bb 4c 9e 3d 7c 7f e1 bc c2 4d 9c bc aa 3d 00 bd
       0.07729479 -0.02752661 -0.019080047 -0.031308807
0001c0 f0 ed 52 bd 6e ba 4e bd 12 b3 44 bc a9 74 ac 3c
       -0.051496446 -0.050470762 -0.012005584 0.021051722
0001d0 1d 4b bb 3b f8 6d e8 3c 6c 18 c1 bc a1 87 5d 3d
       0.0057157413 0.02837275 -0.023571216 0.054084424
0001e0 c2 32 b0 3d ef 64 32 3d 74 5e 37 3d 28 c3 05 3d
       0.08603431 0.04355329 0.044767812 0.03265682
0001f0 39 1c 78 bc 6d f4 0e bd c4 59 bb bd 5a 51 99 bc
       -0.015143448 -0.03490107 -0.09147981 -0.01871555
000200 8e c9 b1 bc 3b 17 c5 bc ad 2c 68 bd c2 8b 18 3b
       -0.021702554 -0.024058929 -0.05668323 0.0023276662
000210 e8 9a 42 bd 72 85 37 bd 0a d4 ba bd 30 c9 e0 bc
       -0.04751101 -0.044804998 -0.091224745 -0.027439684
000220 36 11 e0 bc e1 c9 00 3d 37 f6 08 be 44 91 09 bd
       -0.027351957 0.031442527 -0.13375174 -0.0335858
000230 b9 77 2b 3d 88 2c e2 3c 47 2b 3b 3d e4 bc e3 bd
       0.041862223 0.027609125 0.04569557 -0.111200124
000240 35 c7 38 bb dd ca a0 3d 11 ad 12 3d d2 38 4f bd
       -0.0028194909 0.07851193 0.03580958 -0.050591297
000250 5c cd 78 bd ec 6d 6b 3c a7 a6 91 bd c9 fb 81 bd
       -0.06074272 0.014369469 -0.071118645 -0.06346852
000260 a0 ad 88 3d 94 de 7c b9 52 a8 0b 3d f7 d3 73 3d
       0.06673741 -0.0002411551 0.03409607 0.059528317
000270 05 84 62 bd 34 ae ab 3c 56 48 24 3d 12 24 19 3c
       -0.055301685 0.02095709 0.040108047 0.009346979
000280 64 a2 d2 bd 00 c4 89 bd 3d ee 5a 3d 49 27 9e 3d
       -0.1028488 -0.06726837 0.053449858 0.07722337
000290 38 22 c4 bd 96 dc 57 3d f2 f7 3e bb 2a 5a 21 3d
       -0.09576839 0.0527006 -0.0029139486 0.039392628
0002a0 3b 31 9f 3c c2 c6 74 bd c6 76 d6 3c 54 18 b8 bc
       0.019432655 -0.059759863 0.026179682 -0.022472538
0002b0 c7 67 22 bc ff 15 6c 3d ba 55 88 bd b5 40 a9 bd
       -0.009912438 0.057638165 -0.06656976 -0.08264295
0002c0 18 ee 7a 3d 2e 55 22 3d f8 ae 60 bd 30 3f 04 3d
       0.06126222 0.039632015 -0.054854363 0.032286823
0002d0 28 60 bb 3b 4b 77 89 3d 33 10 e6 bd e9 25 0a bd
       0.00571825 0.067122065 -0.112335585 -0.03372756
0002e0 94 e3 ee bd dd b8 b8 bd 81 4c 3e 3d bd 45 d8 bc
       -0.11664501 -0.09019635 0.04645968 -0.026400441
0002f0 19 95 1c 3d 80 df f5 3c b2 b4 44 3d e7 74 12 3d
       0.038228128 0.0300138 0.048023887 0.035756018
000300 64 c9 16 bd 28 8b 0a 3d fa e7 44 39 81 03 07 3d
       -0.036813155 0.033824116 0.00018778435 0.032962326
000310 16 6e ba 3c 17 b3 49 3d e5 cf 80 3d c3 80 01 be
       0.022757571 0.04924306 0.06289653 -0.12646775
000320 32 c2 bb 3d b7 08 5b 3c 8e 91 08 bc e0 36 1a bd
       0.09167899 0.013368777 -0.008335484 -0.03764999
000330 ef da 93 bc f9 4f 86 bb df 7d 70 be 5d c6 05 be
       -0.018048732 -0.004098889 -0.23485516 -0.13063951
000340 e6 4d 9c bd 3a 6a dc bd d4 51 9a 3c da 80 9d bd
       -0.076320454 -0.107624486 0.018837847 -0.07690592
000350 19 99 f3 bc 59 1f 9e bc a9 28 27 bd a4 17 03 3e
       -0.029736089 -0.019302057 -0.04081026 0.12801987
000360 97 a3 08 3e e1 1b 6e 3c d5 35 20 3d 7b 09 28 3d
       0.13343655 0.014533014 0.03911384 0.041024666
000370 da 6c 5a bc 80 46 65 3d c2 00 3f bc 30 3c 72 bc
       -0.013331616 0.055975437 -0.0116578955 -0.014784858
000380 68 b2 55 3c f5 58 57 be 8e 2e c8 bd 8b a5 b2 3b
       0.013043024 -0.21030028 -0.097745046 0.005451863
000390 18 a9 0d 3e a7 65 3f 3e 64 cb b8 bd 4c f3 7d bd
       0.13834035 0.18691121 -0.09023169 -0.061999604
0003a0 fb 48 16 3c 40 35 4b 3d 3c af 5c bd 20 d1 5f bd
       0.009172673 0.04961133 -0.053878054 -0.054642797
0003b0 a0 eb 10 bd b6 60 6f 3c 40 48 17 bd 01 11 07 be
       -0.03538096 0.01461046 -0.036934137 -0.1319008
0003c0 4b 78 fc bd c7 d8 35 bd 74 07 81 3c c7 9b b3 bc
       -0.123276316 -0.044396188 0.015750624 -0.021924866
0003d0 59 62 58 bd 8d 8c f3 bc 3a 7b 50 3d 27 e8 95 3b
       -0.052828167 -0.029730106 0.050898768 0.004574794
0003e0 79 ab b6 bd 1e 83 7c bd 5c d1 94 bd 61 76 12 3d
       -0.089194246 -0.06164848 -0.07266495 0.035757426
0003f0 6f 96 bc 3d ae 71 19 3c b4 1a d3 bd 66 2f b5 3d
       0.092083804 0.009365482 -0.103078276 0.08846931

fc1.bias f4 [120]
000000 df 1b 99 3c db bc fc bc dd 5b 24 bd 35 b4 6b 3d
       0.018690048 -0.030851772 -0.04012667 0.057544906
000010 a3 62 28 bc 73 96 0f 3d bd 7a 32 b8 28 43 49 3d
       -0.010277423 0.03505559 -4.2552816e-05 0.04913631
000020 5b b5 0c 3d 1b 79 6f 3c 3e cb 0c bc a6 5b fc bc
       0.03435264 0.014616276 -0.008593379 -0.03080542
000030 2b d2 45 3d 33 70 b4 bc cc cc e7 3c fe 22 18 3d
       0.048296135 -0.022026157 0.028295897 0.037142746
000040 d6 fc 84 3d 10 86 bb 3d 4e 3b 01 bd 39 45 9c 3c
       0.06493537 0.0915643 -0.031550698 0.019075977
000050 87 7f bd 3c 5d 97 8d 3c fc 2f ff bb 79 15 09 3d
       0.023132099 0.01728409 -0.0077877026 0.033467744
000060 77 8e 5a 3b c9 dd 44 bc ab 57 99 3d 05 5d a3 3c
       0.0033349076 -0.012015768 0.074874245 0.019941816
000070 a1 18 0a 3d 0c b6 ad 3d 0c 01 d4 bb 96 07 b6 bc
       0.033714894 0.08481988 -0.0064698514 -0.022220414
000080 34 8d aa 3d 71 20 aa bc e4 94 48 3d 91 8c 15 3d
       0.083277136 -0.020767422 0.04897012 0.036511008
000090 10 c9 b9 3c b9 ea 65 bd 47 a0 89 3d 53 32 48 3d
       0.022678882 -0.056132052 0.067200236 0.048876118
0000a0 3f 3c f1 3c 50 43 1c 3d 1c 68 ce bc ca 6e 59 bc
       0.029447673 0.03815013 -0.025196128 -0.013271043
0000b0 d3 4b 09 3d f3 41 8a 3d 2e 6f 12 3e dd 3c 17 3d
       0.033519577 0.0675086 0.14300224 0.036923278
0000c0 21 30 b9 3c 8c b9 42 3b 2a 2d 4c bb 09 d5 8c 3d
       0.022605957 0.0029712645 -0.003115485 0.06876571
0000d0 ec a5 cd 3b 2e f9 06 bd 18 73 20 3d b1 92 94 bd
       0.006275883 -0.03295248 0.039172262 -0.07254542
0000e0 eb b4 53 3d 50 34 0e 3d 7c 66 a2 3d c6 6f d1 bc
       0.05168621 0.034717858 0.079297036 -0.025565993
0000f0 cb d0 ce 3c d9 c9 1a 3d ec 55 ea bc e8 7e b5 bc
       0.025246045 0.037790153 -0.028605424 -0.02215524
000100 de d5 62 3d 6d e5 97 3d cc 8c 79 3c 59 1a 0f 3d
       0.05537974 0.07416806 0.0152313225 0.034937236
000110 6d f9 e7 ba d6 a8 30 bd 5c 7d 6c 3d 30 75 90 bc
       -0.0017698236 -0.043129764 0.05773674 -0.017634004
000120 64 f6 8a 3b a2 9f b4 3d a5 89 e7 3c ea 43 d1 3c
       0.004240798 0.0881951 0.028263876 0.02554508
000130 ba 39 5b 3c bd 08 6a 3d f4 5e c0 3c fe 22 d9 3c
       0.013380462 0.05713724 0.023482777 0.026505943
000140 93 d2 89 bc ed 1f 0f bd 6d 19 92 3d 64 62 b2 bb
       -0.016824042 -0.034942556 0.07133756 -0.005443858
000150 b3 7d ab bc 6e 85 e2 3c 9a 1b 8e 3d 12 cd b8 3c
       -0.020933961 0.027651515 0.06938858 0.022558723
000160 c6 9e 05 3c 82 63 71 3c f7 e5 11 3b b2 9e 24 bc
       0.00815553 0.014733197 0.0022262314 -0.010047602
000170 86 bb 11 3d 80 73 59 bd 39 7d 8a 3c 91 8e 9c 3d
       0.035579227 -0.053088665 0.016905414 0.0764438
000180 2d 19 3d 3c 2e 59 9a 3b cf 32 a3 bc 85 7e 9b 3d
       0.011541647 0.004710338 -0.019921688 0.07592491
000190 76 09 57 3d 23 17 ed 3c 4a e9 59 3d 93 9a de 3c
       0.052499257 0.028941697 0.053200997 0.027173316
0001a0 89 0c 64 3d 3b e5 a0 3d 6e f8 2a 3d 1f f7 c7 bc
       0.055676017 0.07856222 0.041740827 -0.024409829
0001b0 49 09 37 3d aa 16 0c 3d 28 c6 32 bd 39 50 66 bd
       0.04468659 0.0342013 -0.043646008 -0.05622885
0001c0 72 11 4f bd c7 e6 10 bc 63 62 00 3d 3d 01 15 bb
       -0.050553747 -0.008844084 0.03134383 -0.0022736334
0001d0 dc bf a8 3b 85 e1 47 3c 58 e4 f8 bc f7 a6 7d 3c
       0.0051498245 0.012199764 -0.03038232 0.015481702

fc2.weight f4 [84, 120]
000000 48 97 00 3e 2f 5d 47 bd d9 ae ed 3c bd fd e7 3d
       0.12557709 -0.04867285 0.029014038 0.113276936
000010 97 cc 0f 3d 2b 36 ae 3d 63 ac 81 3d 6e 04 a2 bc
       0.03510722 0.085064255 0.06331708 -0.019777503
000020 e1 ce 88 3c 43 fc 9c 3c e6 07 17 bd 13 9b b9 bd
       0.01670021 0.019163257 -0.036872767 -0.09062781
000030 92 32 80 bd 00 4f 82 3d 95 d8 65 be b1 ad 8a bd
       -0.062596455 0.06362724 -0.224459 -0.0677141
000040 41 9d 9c 3c 95 03 97 3d 61 2d a7 bd 23 70 9b bd
       0.019117953 0.0737373 -0.08162952 -0.07589748
000050 66 11 46 3e 98 c1 b5 3d 2a cf 7c 3d ac b9 5c 3d
       0.19342574 0.08874816 0.061721005 0.053888008
000060 e7 e5 0c bd 66 39 88 bd e6 47 45 3d a9 85 91 bd
       -0.03439894 -0.06651573 0.04816427 -0.07105572
000070 a0 44 2d be 0f fe e6 3d 97 5f a2 3d 1b 4d 81 bd
       -0.1692071 0.112789266 0.079283886 -0.06313535
000080 1e a7 1c 3c c8 a7 1c bd 4c fa c6 3d a1 5d 69 3d
       0.009561328 -0.038245946 0.09715709 0.056974057
000090 32 05 2d 3d cd b1 41 bd bb f1 b4 3d db b9 f7 3d
       0.042241283 -0.047288705 0.08835169 0.12095996
0000a0 f8 a6 69 3b 28 58 f2 3d d7 7e 59 3d 75 3f 53 bd
       0.00356525 0.11833221 0.05309948 -0.05157419
0000b0 e1 8b 87 3b 48 52 48 bd c5 5c e5 3d cf 32 d2 3d
       0.004136548 -0.048906595 0.11199335 0.10263597
0000c0 f1 01 f3 bb 27 87 fa bc ef 5d ea 3c a7 44 04 bd
       -0.007416003 -0.030582024 0.028609244 -0.032292034
0000d0 c9 12 85 3d a6 8a 58 3d bb 29 92 3a 75 35 a3 ba
       0.064977236 0.0528666 0.0011151353 -0.0012451845
0000e0 c7 ee c4 3c 79 93 de bd 0a 4d e7 3d b6 b5 d3 3c
       0.02403964 -0.10867972 0.11293991 0.025843482
0000f0 a8 79 08 3e 4c d9 65 bd e2 43 67 bd 3c f3 87 bd
       0.13327658 -0.056115434 -0.056461222 -0.0663819
000100 63 fa 53 3c 25 1a 26 3e e0 2b e1 bc 77 2b 42 bd
       0.012938115 0.16220911 -0.027486742 -0.047404733
000110 a4 45 cd bc ce d8 9c 3d 4f 63 11 3e 4f 13 30 3d
       -0.025057621 0.0765854 0.1419804 0.042987164
000120 16 6a 1b bd 89 06 a2 bc 73 41 1a 3e 17 ee 10 3e
       -0.03794297 -0.019778507 0.1506403 0.14153324
000130 87 08 c7 3d 9b cb e9 bb 6c 41 da 3d 37 6f a3 3d
       0.09718423 -0.0071348674 0.106570095 0.07980197
000140 5a ce 86 bd 19 74 8e bd 98 60 74 3d 54 fa 8f 3c
       -0.06582327 -0.069557376 0.05966243 0.01757542
000150 3f 9c 0b 3d 3f 24 23 3e a7 ed 57 3c 01 d7 2a be
       0.034084555 0.15931796 0.013179219 -0.1668358
000160 30 63 34 bd 97 af bb 3c 08 70 e7 bc cc e7 a2 39
       -0.044039905 0.022910876 -0.028251663 0.0003107175
000170 b4 2d 56 bb fc 97 2d 3b c1 5d c2 bd e0 59 b5 bd
       -0.003268105 0.0026488295 -0.094905384 -0.08855033
000180 fc a3 5a 3d 3e a1 17 3d 14 22 a5 3d 0b 3f ac bc
       0.053379044 0.037019007 0.080631405 -0.021026155
000190 5a c4 ad bd 5f 2a 60 3d 53 a6 a3 3d 3d 54 b8 bb
       -0.08484717 0.05472791 0.07990708 -0.0056252764
0001a0 6b 83 6b bc bd e4 52 3d d6 34 9e 3c 44 0b 65 bd
       -0.014374594 0.051487673 0.019312304 -0.055918947
0001b0 f7 77 db bc d0 ae d8 bd b5 b1 0e 3d 7f c5 55 bd
       -0.026790602 -0.10580218 0.034837443 -0.0521903
0001c0 6b 86 64 bd f4 a7 97 3d 77 d5 9a 3d a6 71 dd 3c
       -0.055792253 0.074050814 0.075602464 0.02703173
0001d0 60 e6 b9 bd d5 5b e7 3d df 94 9f bd cb 0d 25 be
       -0.09077144 0.112968124 -0.07792067 -0.16118543
0001e0 f3 e8 de bd 60 2f cc 3c e2 b9 6f bd 43 33 87 3c
       -0.10884275 0.024924934 -0.05852688 0.016503936
0001f0 cc 66 eb bc 0f 77 02 bb 14 02 98 3c 18 6e 33 3d
       -0.02873554 -0.001990739 0.018555678 0.043806165
000200 42 f8 c4 3a 11 83 08 3e e8 9a a1 bc c4 70 e6 bd
       0.00150276 0.13331248 -0.019727185 -0.11251977
000210 ce 5b e7 3d 32 17 96 3c b5 34 f1 bd a5 15 7b bd
       0.11296807 0.018321607 -0.11777631 -0.06129994
000220 cf b1 aa 3d b5 ac 81 bd 47 c7 aa bd 86 64 4d bd
       0.083346955 -0.063317694 -0.083387904 -0.050144695
000230 a7 a4 c6 3d 86 21 17 3d ce 65 56 bd 78 a6 c7 3d
       0.09699374 0.036897205 -0.052343182 0.09748548
000240 14 0f 87 3c a1 9b d4 3d ad 55 43 bc 68 a3 45 3d
       0.016486682 0.10381246 -0.011922282 0.04825154
000250 95 75 db 3a 77 f2 fc bd 94 40 bf 3d 75 a9 9c 3d
       0.0016743416 -0.12350934 0.09338489 0.07649509
000260 3b 1a 06 3e 52 22 99 bd 11 f9 25 bc 54 b3 a4 3d
       0.13095944 -0.07477249 -0.010130183 0.080420166
000270 62 a6 1a 3e 03 84 e1 3d 76 21 f4 bc 25 3d d4 3d
       0.15102533 0.11011507 -0.029801112 0.10363225
000280 dc 4b 04 bb 0c 59 9f bd 90 7f 61 3d 35 06 72 bc
       -0.0020186817 -0.07780656 0.055053294 -0.014771988
000290 38 66 b6 bb d7 aa c7 3c fa 7b 3a be e8 2a dc bc
       -0.0055663846 0.024373455 -0.18211356 -0.026875928
0002a0 65 af 14 bd 2c 7f 07 3b 38 eb 24 3d 81 27 3d 3d
       -0.03630008 0.0020675166 0.040263385 0.046180252
0002b0 17 cc 70 bb 40 5e 94 3b 17 24 9f 3c 36 ba 82 bd
       -0.003674274 0.004527837 0.019426389 -0.06383173
0002c0 ff 12 99 3d 5a 69 80 3d 3a 40 99 bd c0 a8 4d 3e
       0.07474326 0.06270094 -0.07482953 0.20083904
0002d0 52 ee 13 bb bd 0d c9 bd 65 ef cb bd f5 bc c8 bc
       -0.002257247 -0.098170735 -0.0995777 -0.024504164
0002e0 2f dc 1a bd f5 98 de 3c 7c 47 60 bd 24 a0 fe bc
       -0.03780764 0.027172545 -0.054755673 -0.03108222
0002f0 da b7 cf 3c 84 e6 a5 3d 43 8e 89 3d 66 6c c8 3d
       0.025356222 0.08100608 0.067165874 0.097863
000300 53 5f 66 3d 49 49 e7 3d 13 c6 83 3d b7 ce 2a bd
       0.056243252 0.11293275 0.06434264 -0.041701045
000310 ce e6 fc bd 45 12 c8 3c a6 ff 07 be 52 10 96 bd
       -0.1234871 0.024422774 -0.13281116 -0.073273316
000320 5d 42 dc 3d bc 81 98 3c 6b 73 75 3c 12 c4 9a ba
       0.10754845 0.01861655 0.014981131 -0.0011807701
000330 21 05 95 bc 38 9e 1a 3e dc d1 42 3c 01 f3 02 3e
       -0.018190922 0.15099418 0.011890855 0.12788011
000340 d0 82 3e 3d f7 95 9c bd a1 36 aa bd 25 43 13 bd
       0.04651147 -0.07645791 -0.08311201 -0.035952706
000350 6f 84 aa 3d 69 0f 00 bd 04 21 d1 bb d6 61 87 3d
       0.08326041 -0.031264696 -0.0063821096 0.066104576
000360 22 3e 52 3d ab 40 a7 bd 42 a1 4e 3d 56 8c 95 bc
       0.051328786 -0.08166631 0.050446756 -0.018255394
000370 cd dc 01 be 17 27 63 3d 50 a9 2f 3d ad d4 a4 bd
       -0.12681885 0.0554572 0.04288608 -0.08048377
000380 1a eb 0e 3d 9c 51 0e 3e f1 4f 8e 3c d8 cc 12 3d
       0.03489218 0.13898319 0.017372103 0.035839885
000390 37 33 ab 3d 32 00 a6 bc c9 6e 43 3d 68 9b 21 3d
       0.08359378 -0.020263765 0.047713075 0.039454848
0003a0 91 7c 00 bd d7 47 25 bd a6 ac 34 bd 98 38 d2 3d
       -0.031368796 -0.040351715 -0.044109963 0.10264701
0003b0 62 c0 55 3c 64 21 ba bd 56 9e 0f bd ea e9 6a 3c
       0.013046356 -0.090884 -0.03506311 0.014337996
0003c0 57 a9 ec bc ec 05 b3 3d 8c 8b a9 3c 8a 2c 63 bd
       -0.028889341 0.08741364 0.020696424 -0.055462398
0003d0 8b 33 24 be 86 42 04 bd 1e 0d 0b bd 0f 6f 2e 3d
       -0.16035287 -0.032290004 -0.033948056 0.042586382
0003e0 da 73 da bd 59 38 4b 3d 87 77 25 be 16 84 e4 3c
       -0.10666628 0.049614284 -0.16158877 0.027895015
0003f0 9d 36 bb 3d ea c7 14 3e 41 1c 30 3c ea 2c 14 3d
       0.09141276 0.14529386 0.010748924 0.036175646

fc2.bias f4 [84]
000000 b0 bc f1 3d be a0 16 bd 82 40 16 3c fc 65 1a bc
       0.118035674 -0.03677439 0.009170653 -0.009423729
000010 48 45 44 3c 06 a8 9e bb 1c e0 5c 3d 45 13 e9 3d
       0.011979409 -0.0048418073 0.053924665 0.113806285
000020 95 3a 61 3d 19 5e a2 bd 61 e4 7f 3d 2a 86 6c bc
       0.05498751 -0.07928104 0.06247366 -0.014436284
000030 21 61 2f bd b5 35 1f 3d 4d 79 44 3c 1c 5b 6a bc
       -0.04281724 0.03886958 0.011991811 -0.014303949
000040 a0 a3 04 3e 17 c1 17 3c 20 13 a9 3d c0 0b 9a 3d
       0.12953043 0.009262345 0.08255601 0.075217724
000050 f0 86 81 3c 39 68 f2 3c ba 85 84 3d 73 bb a5 3c
       0.015811414 0.029590713 0.06470819 0.020230984
000060 57 54 5d 3d 40 f6 ef ba 58 06 62 3b a5 e3 a7 bc
       0.05403551 -0.0018307641 0.0034488644 -0.020494292
000070 44 76 68 3d 19 18 29 bd 4f 64 bf bc 59 50 c7 bc
       0.056753412 -0.041282747 -0.02336326 -0.024330305
000080 a8 41 02 3e 26 ab 04 3d b5 a1 85 3c 6e c1 e1 3d
       0.12720358 0.032389782 0.01631246 0.11023222
000090 44 d0 57 3d 95 fb 92 bc df e2 84 bd eb 73 d6 3d
       0.052688852 -0.01794223 -0.06488585 0.10471328
0000a0 cd e2 00 be 9c 35 b6 bb 02 fd 17 bd c7 a1 47 3c
       -0.12586518 -0.00556059 -0.03710652 0.012184567
0000b0 f9 23 39 bc 1d a9 5c bd 10 7c 30 3c 43 3f 66 bd
       -0.01130008 -0.053872216 0.010771766 -0.056212675
0000c0 99 5c bc bd 3c 2d af 3a 2a a8 b4 bc c1 7e 7f bd
       -0.09197349 0.0013364921 -0.022052843 -0.06237674
0000d0 91 ad ea 3d 2f 70 b0 3d 5b f8 38 bd d8 77 a3 bd
       0.114588864 0.08615147 -0.045158725 -0.07981843
0000e0 11 20 44 bd 47 cb 1a bd 91 fe b2 bc 93 6b 5d 3d
       -0.047882143 -0.037791517 -0.021849902 0.05405767
0000f0 c5 12 e1 bd 2b fe a1 bd 0c 6f 9e 3d 3c 8c 3d 3d
       -0.10989908 -0.07909807 0.07736024 0.046276316
000100 96 d4 fb bc cb f6 be 3d f4 ee 86 3d a0 e3 a8 bc
       -0.030741017 0.09324416 0.065885454 -0.020616353
000110 fc 71 4e 3d 52 a8 cc 3d 62 ec 26 3d 0e 8b c3 bb
       0.050401673 0.09993042 0.040752776 -0.0059675043
000120 1c 5b 45 bd 67 6c 00 3e 03 01 4c 3d 7d 3d 2c bd
       -0.04818259 0.12541352 0.049805652 -0.042050827
000130 fd 1d 2d 3d b7 1b 5d bd e3 df 84 3d 2e df 9c bd
       0.042264927 -0.05398151 0.064880155 -0.07659756
000140 87 c6 9d 3d d8 29 85 3d 13 15 f7 bb 79 cf 75 3d
       0.07703882 0.06502122 -0.007540354 0.060012314

fc3.weight f4 [10, 84]
000000 a0 c8 ee bd b9 d7 af 3d ed b2 98 3c 6e c3 23 bd
       -0.1165936 0.08586068 0.018640006 -0.0399813
000010 6b 78 b5 3d a2 64 fb 3d 57 28 97 bd fe 54 11 be
       0.088608585 0.122750536 -0.07380741 -0.14192578
000020 b6 79 2d 3d b9 e9 67 3d c8 da 9a bd e2 1b 3e bc
       0.0423524 0.05661938 -0.075612605 -0.0116033275
000030 f8 4e b1 3a 56 e8 15 3e 03 6b 29 bd be 2f b6 3d
       0.0013527563 0.1463941 -0.04136182 0.08895825
000040 6f 04 ca bd 75 ff 09 be 65 9f 1a be 4b 26 44 be
       -0.09864127 -0.13476355 -0.15099867 -0.19155233
000050 c8 dd 20 be 8f af 73 3d 9f 29 30 3d 2d 9a a4 3d
       -0.15709603 0.059493598 0.043008443 0.08037219
000060 a6 ff 90 bd 26 e6 05 be 46 56 c9 3c e3 cd 65 bd
       -0.07080011 -0.13076076 0.024577271 -0.056104552
000070 8a 68 af 3d dc f3 b2 3d db fe 0c 3e aa 73 1f 3d
       0.08564861 0.08737919 0.13769095 0.038928665
000080 98 a7 d8 bd e9 68 6a 3d e3 df 14 3e 27 a3 93 3d
       -0.10578841 0.057228956 0.14538531 0.07208853
000090 28 9b 01 3e 7b 98 d7 bc 4b b4 2c bd 9a 5e 08 3e
       0.12656844 -0.026317826 -0.04216413 0.13317338
0000a0 61 d0 25 3d 4f 1b ba bd 0d 5b 69 3d 78 e1 0a 3d
       0.04048193 -0.0908724 0.0569716 0.03390643
0000b0 04 a9 aa 3d 07 0f 88 3d 02 66 8a be 65 0b b0 bd
       0.083330184 0.06643491 -0.2703095 -0.08595923
0000c0 2c 46 a7 bc cf 9a 46 be 6f 6b c9 3c 8e 71 72 bd
       -0.020419203 -0.19394992 0.024587361 -0.059190325
0000d0 39 5d fb bd 2d 2c ce bc 33 69 d2 bd 80 82 d0 ba
       -0.1227364 -0.025167549 -0.102739714 -0.0015908033
0000e0 1a 86 f3 3d 94 5c 0b 3e e5 67 80 3d 4f 4f 48 3c
       0.11890812 0.13609535 0.06269816 0.01222594
0000f0 fb f6 a2 bd 55 71 44 3d 0c 30 88 3d 49 d0 3a 3d
       -0.07957264 0.047959644 0.06649789 0.045608792
000100 13 02 11 3c 1d 31 b0 3d 0d 7b e0 bd f6 34 76 bc
       0.008850592 0.086031176 -0.1096097 -0.015027275
000110 d3 ac 8b bc 67 a0 cc bc ad 3b db 3d f2 1d da bd
       -0.017050182 -0.02497883 0.107047416 -0.10650243
000120 88 37 0d be c7 45 11 3e 46 9a 05 be 99 c4 4b be
       -0.13790715 0.14186774 -0.13047132 -0.19899215
000130 8b 6c 99 3d 26 5f 95 bd 9d 7c ab bd 2f 37 c5 bd
       0.07491406 -0.07293539 -0.083733775 -0.09629666
000140 3c cf 4d 3d ff bd 2f bd 60 d6 58 bd 0f fc 4c 3d
       0.050246462 -0.042905804 -0.05293882 0.05004507
000150 15 87 31 3e c3 31 38 be 7f c0 75 bd 00 c1 9c 3d
       0.17336686 -0.17987733 -0.05999803 0.07653999
000160 75 c0 db 3c 1b 63 9e bc a4 3f 49 bd 4e 0b 10 3c
       0.02682517 -0.019334367 -0.049132958 0.008791758
000170 9f 10 1c be fb 47 8e 3d 3d 94 ad 3d e7 55 ba bd
       -0.15240715 0.06947323 0.0847554 -0.09098416
000180 5e 5a 1f be 27 d3 3d 3a 4b a3 d1 bc da 84 18 bd
       -0.15561816 0.0007241242 -0.02559056 -0.037236072
000190 e7 f9 ba bd c2 ab 8d 3d 92 7e a6 3b 5c ff 04 3e
       -0.09129696 0.06917526 0.0050810063 0.12988037
0001a0 84 b3 4a 3d 1c 14 20 3d c3 ad 77 bd b6 68 3d be
       0.049487606 0.039081678 -0.060468446 -0.18496975
0001b0 f5 83 8d 3d 30 14 f1 bc 29 57 72 be 39 3b 76 bd
       0.069099344 -0.029428571 -0.23666061 -0.060115073
0001c0 aa fd 11 bd 14 f3 6c bc fb 28 fa bc 9e 9c 25 bd
       -0.035642304 -0.014462251 -0.03053712 -0.040432565
0001d0 9f 95 ec 3d 32 3e 93 3d 74 67 79 3c ed 83 bb 3d
       0.115519755 0.07189597 0.015222419 0.09156022
0001e0 c3 54 d9 bd 46 1d 78 3e 1b 2e ed bd 6c 9a 02 be
       -0.1061187 0.24229917 -0.115810595 -0.1275422
0001f0 69 43 92 3d f3 2c c0 bd 6e 18 a7 bc 51 a5 ae bb
       0.07141764 -0.093835734 -0.020397391 -0.005329766
000200 36 4a 30 be 1c ed b6 bd 5c d1 2e bb ca 60 20 bd
       -0.17215809 -0.08931944 -0.002667508 -0.039154805
000210 3f 6d 7f bd 3d ce e5 bb de 3f 42 be 71 96 3a bd
       -0.062360045 -0.007013111 -0.18969676 -0.04555363
000220 f0 17 a1 bd 16 4a f7 3d f3 b6 9f bd fa 95 7a bb
       -0.07865894 0.12074678 -0.07798567 -0.0038236366
000230 15 4b f7 bc 01 cd 4c 3d d5 9b 16 3d a4 d2 f5 bc
       -0.03018717 0.050000194 0.036769707 -0.030007668
000240 05 8e 89 bd 0f a1 fb bd 2e fc 52 be 82 eb 3e bc
       -0.06716541 -0.12286579 -0.20604011 -0.011652829
000250 13 3d cd 3d 30 c0 6b 3d fd 24 b2 bd 45 a2 25 3e
       0.100214146 0.05755633 -0.08698461 0.16175182
000260 48 d6 05 3e a2 22 bb 3d f8 2e 22 be 48 d4 d2 bd
       0.13070023 0.09137465 -0.1583823 -0.10294396
000270 6b 41 0e be da d4 10 3d ed 62 6f 3e 02 03 02 bd
       -0.13892142 0.03535924 0.23377581 -0.03174115
000280 ff 21 c1 bb a0 58 a9 3d cf d2 62 3e e0 36 5e 3d
       -0.005893945 0.08268857 0.2215073 0.05425155
000290 ba 81 13 be 75 aa e8 3b 69 74 04 39 e8 18 26 3e
       -0.14404956 0.007100398 0.00012631867 0.16220438
0002a0 66 9a 58 3d 1f f7 6c 3d 12 d4 3c 3e 90 58 45 bd
       0.05288162 0.05785286 0.18440273 -0.048180163
0002b0 a6 08 2a 3d 14 c8 e2 bc 07 e3 32 be f8 e4 c0 3d
       0.041512154 -0.027683295 -0.17469417 0.09418672
0002c0 21 bf cb 3d 9d 00 ea 3c 17 4c 21 3e b4 15 00 bd
       0.09948564 0.028564746 0.15751682 -0.031270698
0002d0 4d 32 0a be 51 6d 26 3e b1 b9 93 3d 16 14 83 3b
       -0.1349575 0.16252638 0.07213152 0.004000197
0002e0 ec ad 03 be 29 58 da 3c 71 5c a0 3c 69 9b 04 3e
       -0.12859315 0.026653366 0.01957533 0.1294991
0002f0 e8 e6 7f bd 71 99 9c bd 67 62 9e bd b5 07 c7 bd
       -0.06247607 -0.07646454 -0.077336125 -0.09718267
000300 c3 13 ce 3d 52 96 6b 3d ef 86 e4 3d 55 ca 3d 3c
       0.10062363 0.057516403 0.11158549 0.011583884
000310 82 6c ba 3d 51 a9 9d 3d 27 66 81 3d 2e 7a fd bd
       0.091027275 0.0769831 0.06318312 -0.123768196
000320 2a 72 b5 be 36 ec 28 3e a1 69 12 3d c6 c6 9a 3d
       -0.35438663 0.16496357 0.035745267 0.07557444
000330 67 54 ce bc 51 8a 88 bc c7 35 c8 bc 7d 79 9a 3d
       -0.02518673 -0.016667517 -0.024439706 0.07542703
000340 fc 4e 87 bd d0 02 63 3d c0 39 0f be 29 ec c4 bc
       -0.06606862 0.055422604 -0.13986874 -0.024038391
000350 ec 6a 5e 3d 86 0d 1c bd fc 77 2a 3d 21 6c 6c bd
       0.054301187 -0.038098834 0.041618332 -0.057720307
000360 b3 09 60 3d 0b 0a 03 be 3d 5a 46 3d 51 bd 6c bd
       0.05469675 -0.127968 0.0484259 -0.057797734
000370 a9 a5 56 3d 4a 8b 14 be 85 f8 be bc d0 4a 68 3d
       0.05240408 -0.1450626 -0.023311863 0.05671197
000380 73 29 9a 3d 37 d1 76 bb 2c 98 5b 3d 76 6c d6 3c
       0.07527437 -0.0037661323 0.05361192 0.026174765
000390 62 33 65 3d 16 d6 02 3d 8d 4b 87 bd 75 0d 0f 3d
       0.055957206 0.03194245 -0.06606207 0.034924943
0003a0 aa 95 04 3d 22 09 28 be 80 21 25 3d 0f 70 eb bd
       0.032369293 -0.16409734 0.04031515 -0.11495983
0003b0 e7 fa 0b 3d cd ac cf bd 68 74 cd 3c 05 b4 21 bd
       0.034174826 -0.10140381 0.02507992 -0.03947832
0003c0 e5 28 f0 3d bd 68 4a bd c0 36 4c be 5c 5b b8 bd
       0.1172655 -0.049416292 -0.1994276 -0.090018004
0003d0 71 29 5c bd 4d e0 99 bd dc ef c3 3c 8a 02 de bd
       -0.05375046 -0.07513485 0.023918085 -0.10840328
0003e0 09 55 0d be 7f 22 c8 3d c3 1a 88 3d 77 19 4d be
       -0.1380197 0.097722046 0.066457294 -0.20029245
0003f0 2e bf dd bd 8c 6c 75 3d 8a c5 16 bd 99 9d 69 3b
       -0.1082748 0.05991797 -0.03680948 0.0035646914

fc3.bias f4 [10]
000000 2f b3 cd bd 56 c3 b1 3d 56 79 53 bd 10 d5 bb bc
       -0.10043942 0.086798355 -0.051629387 -0.022928745
000010 6f 61 b4 3d ab 78 7a bd 6c 0b d9 3d 24 68 c1 3d
       0.088076465 -0.061150234 0.10597882 0.094436914
000020 f2 a5 20 3d 80 fd 17 3d
       0.039220758 0.03710699

exp_avg f4 [6, 1, 5, 5]
000000 78 86 c3 ba 3c 92 bc ba d1 e0 7b ba 23 52 6e b9
       -0.0014917394 -0.0014386843 -0.00096083904 -0.00022728047
000010 a1 fd 1e b9 1d 4a 03 bb 39 37 17 bb 16 e6 fe ba
       -0.00015162538 -0.0020033189 -0.0023073687 -0.0019447233
000020 e1 a8 b4 ba b6 a3 81 ba d3 4f 0e bb 2e 7e 1e bb
       -0.001378324 -0.0009890709 -0.002171506 -0.0024184096
000030 ff 29 21 bb 56 ab 05 bb 90 44 c4 ba 1d 65 ce ba
       -0.0024591682 -0.0020396314 -0.0014974046 -0.0015746687
000040 57 5d eb ba 1b f3 f1 ba 6a dd ed ba 73 88 ba ba
       -0.0017956895 -0.0018459292 -0.0018147652 -0.0014231339
000050 1e 39 b7 b9 bf a9 ff b9 71 8c 43 ba 12 02 70 ba
       -0.00034947036 -0.0004876386 -0.0007459587 -0.0009155582
000060 e0 cb 6f ba d3 25 df ba 53 40 17 bb ab 26 cf ba
       -0.0009147506 -0.0017024822 -0.0023079112 -0.0015804371
000070 34 cf 11 3a a8 63 0f 3b f8 69 28 ba 67 25 85 ba
       0.00055621867 0.0021879468 -0.0006424482 -0.0010158241
000080 34 f9 fa b9 ca 94 8d 3a 1d 37 22 3b 28 07 d1 39
       -0.00047869387 0.0010801789 0.0024752088 0.00039868918
000090 a3 20 fb 39 be 59 c5 3a 3e 69 31 3b 88 23 69 3b
       0.00047898767 0.0015056652 0.0027070786 0.0035574157
0000a0 6f 1e a4 3a 98 d4 f4 3a 05 68 7b 3b f4 69 9c 3b
       0.0012521277 0.001867908 0.003836156 0.004773373
0000b0 a1 7e 82 3b 39 5c 32 3b 3a f6 91 3b eb 1b d5 3b
       0.0039823805 0.0027215614 0.0044544013 0.006503572
0000c0 c3 e3 ce 3b 98 03 a4 3b b8 eb 98 ba 94 77 10 bb
       0.0063137724 0.005005311 -0.0011666929 -0.002204393
0000d0 86 8e 51 bb a5 7f 84 bb 9f a0 62 bb 88 04 cd ba
       -0.003197582 -0.0040435367 -0.00345806 -0.0015641609
0000e0 1b d4 17 bb 04 06 44 bb 54 27 70 bb 6b 7d 54 bb
       -0.0023167196 -0.0029910812 -0.0036644535 -0.0032423388
0000f0 58 41 00 bb 37 75 1a bb 85 08 23 bb 4d 89 41 bb
       -0.0019570198 -0.00235684 -0.0024876904 -0.00295313
000100 01 c1 31 bb ed 2a f3 ba 22 66 05 bb af 64 00 bb
       -0.0027123096 -0.0018552222 -0.0020355065 -0.0019591262
000110 83 9f 10 bb ad 15 1d bb cd 45 a8 ba 7c bb d5 ba
       -0.0022067733 -0.0023969219 -0.0012838185 -0.0016306485
000120 ce d3 c8 ba eb 9c eb ba 68 7f 00 bb d5 5b ae 3b
       -0.0015321912 -0.0017975842 -0.001960719 0.005321006
000130 b9 fe af 3b 09 ae 97 3b fd 45 16 3b c0 72 20 3a
       0.0053709415 0.004628901 0.00229299 0.00061206147
000140 db 29 8e 3b a6 e9 85 3b 3c 64 21 3b 1f bf a3 b9
       0.0043384857 0.004086691 0.0024626395 -0.0003123218
000150 59 c9 1a bb 5e 7d 73 3b aa a7 46 3b ed c0 06 3a
       -0.0023618548 0.0037153582 0.0030312338 0.00051404425
000160 30 f7 1f bb 35 46 99 bb 3c 76 35 3b 08 aa 07 3b
       -0.002440881 -0.004677559 0.0027688881 0.0020700712
000170 f3 28 ed b9 b8 bf 51 bb bd 00 bf bb e3 20 26 3a
       -0.00045234672 -0.0032005142 -0.0058289454 0.0006337298
000180 a7 e8 5d ba fe 78 4c bb d9 a6 b6 bb b1 f2 fd bb
       -0.0008465149 -0.0031200047 -0.005574089 -0.0077498783
000190 f2 b1 2e bb e4 1c f1 ba 4f 47 1b ba ab b5 e7 39
       -0.0026656357 -0.0018395451 -0.00059234066 0.00044195107
0001a0 dc b5 92 3a 26 fe 5e bb 15 cd 19 bb db ab 43 ba
       0.0011193114 -0.0034025996 -0.0023468186 -0.0007464268
0001b0 a1 11 97 39 79 2b fe 39 db aa 41 bb 0a 64 c3 ba
       0.000288141 0.00048479045 -0.00295513 -0.0014907133
0001c0 5e ad dc 37 99 4e 1b 3a 21 ec 40 3a b3 46 1a bb
       2.6306774e-05 0.0005924493 0.00073594047 -0.0023540675
0001d0 23 04 49 ba 65 fb 2a 39 be 4e 94 39 8b 37 09 3a
       -0.0007668158 0.00016306115 0.00028287427 0.0005234412
0001e0 c3 b9 a5 ba af 5f c2 b9 b1 e4 ad 39 45 8e 6f 39
       -0.0012643862 -0.00037073853 0.0003316752 0.00022845816
0001f0 85 c5 81 39 88 e7 e0 39 62 ef 97 b9 35 a1 c0 ba
       0.0002475196 0.00042897114 -0.00028979318 -0.0014696481
000200 36 17 27 bb 28 2b 3d bb ab 69 f5 b9 d8 31 84 ba
       -0.0025496013 -0.0028864834 -0.0004680877 -0.0010085655
000210 b4 0a 06 bb 6b 7f 35 bb d4 ad 12 bb c5 bb 87 ba
       -0.0020453157 -0.0027694355 -0.0022381442 -0.0010355642
000220 0d 8d cd ba 21 ab 12 bb 5e b1 0a bb 2b 33 e6 ba
       -0.0015682295 -0.0022379833 -0.0021162848 -0.0017562857
000230 99 10 48 ba 32 02 b5 ba 51 74 ac ba 26 12 98 ba
       -0.0007631868 -0.0013809858 -0.0013157224 -0.0011602088
000240 3f a9 bd ba e0 42 d1 b9 19 4d 82 ba 7a 20 9c ba
       -0.0014469995 -0.00039913412 -0.000994119 -0.0011911534
000250 c8 ef cb ba c3 d5 09 bb
       -0.0015559131 -0.0021031953

exp_avg_sq f4 [6, 1, 5, 5]
000000 f2 a7 42 38 12 b2 64 38 90 e4 65 38 5a 9c 62 38
       4.6409616e-05 5.4525277e-05 5.481072e-05 5.4028213e-05
000010 32 ac 6d 38 d0 ff 23 38 3f e6 48 38 a5 71 64 38
       5.6665573e-05 3.9100472e-05 4.789815e-05 5.4465276e-05
000020 ae d2 7f 38 36 d0 89 38 b0 e1 1d 38 42 9d 40 38
       6.099295e-05 6.5714514e-05 3.7641905e-05 4.5922825e-05
000030 f5 a2 6c 38 9c 9d 8d 38 3e 13 9a 38 db 26 2c 38
       5.641855e-05 6.752761e-05 7.3468764e-05 4.1044183e-05
000040 d5 6e 47 38 50 9f 7c 38 bd fe 8c 38 12 96 9c 38
       4.7548518e-05 6.0229853e-05 6.723169e-05 7.4666124e-05
000050 6c 24 3d 38 5d e3 50 38 20 20 79 38 ac 5b 8e 38
       4.5095032e-05 4.9802813e-05 5.9396145e-05 6.788163e-05
000060 3f ee 9c 38 3d e1 0a 39 dd 1f 52 39 67 67 bb 39
       7.4830365e-05 0.00013244613 0.0002003903 0.0003574446
000070 e9 a7 06 3a c0 31 f7 39 c3 fc 11 39 cf 75 7e 39
       0.0005136715 0.00047148578 0.00013922439 0.00024267215
000080 d0 22 fd 39 cc 18 30 3a 19 e9 0f 3a df 7f 20 39
       0.00048281858 0.0006717562 0.00054897513 0.00015306425
000090 d3 4f a1 39 18 78 24 3a e6 9c 51 3a 81 92 14 3a
       0.00030767787 0.0006273999 0.0007996097 0.0005667583
0000a0 ad 17 43 39 13 21 c9 39 bf fd 3c 3a 99 8e 59 3a
       0.00018605469 0.0003836235 0.0007209442 0.0008299142
0000b0 af 30 0b 3a a4 ce 76 39 af a6 f4 39 99 fb 45 3a
       0.00053096836 0.00023537368 0.00046663496 0.00075524446
0000c0 22 ea 3f 3a 56 76 e9 39 e5 71 35 38 0e 2e 2a 38
       0.000732096 0.0004452939 4.3259835e-05 4.057405e-05
0000d0 0f ca 4d 38 96 c5 80 38 b2 65 7d 38 65 ff 34 38
       4.906399e-05 6.140319e-05 6.041461e-05 4.31532e-05
0000e0 0a 78 31 38 1e 11 4b 38 dd 7f 52 38 13 c3 2d 38
       4.2311884e-05 4.8414913e-05 5.0186984e-05 4.142809e-05
0000f0 8c fa 3f 38 22 35 37 38 7d bc 2c 38 46 bb 13 38
       4.577129e-05 4.3680084e-05 4.118354e-05 3.5221943e-05
000100 84 56 ea 37 79 9d 2b 38 61 78 1d 38 b0 6f 11 38
       2.793526e-05 4.0916235e-05 3.754383e-05 3.467471e-05
000110 9b c8 e7 37 20 d1 bd 37 00 81 21 38 fe f1 1b 38
       2.763076e-05 2.2627937e-05 3.8505532e-05 3.7180253e-05
000120 af 5d f9 37 81 36 ba 37 ff c7 a4 37 40 db ae 39
       2.9726738e-05 2.2198308e-05 1.9643454e-05 0.0003335122
000130 26 08 bf 39 21 2f eb 39 2a 50 17 3a f9 b7 39 3a
       0.0003643643 0.00044857807 0.0005772138 0.0007084604
000140 56 c4 9f 39 c6 d1 a9 39 0d ac d6 39 80 50 11 3a
       0.00030473125 0.00032390485 0.0004094545 0.00055433065
000150 2b 98 31 3a e1 f1 6e 39 d9 ba 5e 39 c8 8e 89 39
       0.0006774689 0.00022787556 0.00021241176 0.00026237057
000160 b6 7d cb 39 0d 59 00 3a 84 13 25 39 e7 9a 12 39
       0.0003881284 0.0004896082 0.00015742896 0.0001398135
000170 4e 95 30 39 ee b2 89 39 4a 3e b6 39 7a 42 11 39
       0.00016840288 0.0002626399 0.00034760154 0.00013853042
000180 3f 25 07 39 7c d9 27 39 63 64 75 39 1a 53 a1 39
       0.00012888479 0.0001600738 0.00023402418 0.00030770228
000190 6a df 2b 39 92 f1 8e 39 d3 7c ac 39 de 14 8d 39
       0.00016391059 0.00027264334 0.00032899398 0.00026909163
0001a0 f2 40 58 39 73 94 4b 39 e4 a0 a1 39 ee 33 a5 39
       0.00020623559 0.0001941489 0.00030828186 0.00031509943
0001b0 cc 82 5f 39 56 0f 28 39 9e a2 69 39 98 4a a9 39
       0.00021315663 0.00016027442 0.00022281191 0.0003228977
0001c0 f7 2c 96 39 b0 bf 3f 39 ac c0 1f 39 7a ee 77 39
       0.0002864373 0.00018286589 0.00015235197 0.00023644595
0001d0 34 60 a7 39 da 01 93 39 15 e5 53 39 79 fb 45 39
       0.000319244 0.00028039404 0.00020207868 0.00018881065
0001e0 2d 08 6b 39 ba 56 9a 39 5a 8b 95 39 cc 92 7e 39
       0.00022414392 0.00029437785 0.0002852332 0.00024278014
0001f0 b3 10 7d 39 79 79 55 38 79 76 8b 38 88 88 b6 38
       0.00024134181 5.0896288e-05 6.650104e-05 8.703867e-05
000200 7a 77 d2 38 c8 04 c4 38 d4 b8 82 38 32 82 be 38
       0.000100358346 9.346899e-05 6.23331e-05 9.084157e-05
000210 d6 15 fa 38 ef c5 00 39 a2 4d da 38 89 bc 9f 38
       0.00011924996 0.00012280767 0.0001040951 7.616828e-05
000220 29 ca ed 38 d6 ce ff 38 9e 2c d0 38 61 64 aa 38
       0.00011338696 0.00012197874 9.9265235e-05 8.124929e-05
000230 00 a0 a8 38 01 ca d8 38 33 4b af 38 9c a7 6f 38
       8.0406666e-05 0.00010337309 8.358657e-05 5.713814e-05
000240 4c 9f 50 38 12 99 9f 38 61 d1 a6 38 58 d0 6b 38
       4.973942e-05 7.6102224e-05 7.954497e-05 5.62224e-05
000250 20 6b 24 38 99 8d 21 38
       3.9200415e-05 3.8517264e-05

exp_avg f4 [6]
000000 e8 77 00 ba ae 61 1a 3b b0 45 ae ba 34 df 0a 3b
       -0.000490068 0.0023556757 -0.0013295915 0.0021190168
000010 27 7a a2 39 dc 7b d1 ba
       0.00030990058 -0.0015982348

exp_avg_sq f4 [6]
000000 47 31 36 38 4c 56 8c 39 50 be 79 37 20 15 0a 3a
       4.3438074e-05 0.00026767177 1.4885867e-05 0.000526743
000010 9c 45 62 38 3b 4b 14 38
       5.3947428e-05 3.5356014e-05
